p1.pth (torch, 916277 bytes, 16 tensors)

conv_2d1.weight f4 [16, 1, 4, 4]
00000000: 02b8 7ec1 dcc0 e8c0 e93b 47c0 18b9 37c1
00000010: fe2e 72c0 dcf4 b440 d084 7cc1 501b 08c1
00000020: a082 b4c0 546d 65c1 b468 3bc0 a24d 68c0
00000030: 20e5 8cc0 5679 e441 0bcb 40c0 6abc 0cc1
00000040: b4de d9c0 c698 a7c0 ee8d 2bc1 9e7e 75c2
00000050: 2630 2840 33db 5a40 5ee5 82c1 614a a3c1
00000060: da22 11c1 08e1 3bbf 2abf 94c1 4ae4 a5c1
00000070: aa59 e9c0 3df8 06c1 fcdd b3c1 981a 1bc2
00000080: 0028 f7c0 3280 6fc0 e694 debf 6e0e 3b41
00000090: 1ebb c3c0 b199 5ec0 946b b640 3604 1041
000000a0: a2a7 42c1 4edc 83c0 0084 763f e468 8840
000000b0: 4290 a4c0 9b32 aa41 c2e7 6541 8946 be40
000000c0: a3fd fe41 dd57 4641 e70e 3c41 a5fb e241
000000d0: 8f5a 3c41 50ce 1dc1 ae2b 1bc1 726b ab40
000000e0: cc69 9dc0 13d5 1cc0 a857 f63f a2ef 0141
000000f0: 6cc8 f1c0 208f 9241 34ba 9f41 b104 9f41
00000100: 25ee 29c2 b99f aec2 a6d0 acc2 ef74 99c2
00000110: fab9 86c1 afbd 33c2 813c 95c2 2648 95c2
00000120: 90f0 42c1 3cfa 64c2 81a1 9fc2 a9b4 8fc2
00000130: 3641 c9bf d7a6 06c2 23d9 64c2 a488 2cc2
00000140: 365d adc0 38a8 83c1 b724 58c0 d805 94c0
00000150: a2ac ffc0 7a0e c3c1 881e b73f 9ab9 7ac1
00000160: 568c cdc0 9fb8 dcc1 d416 57c1 1020 fcc1
00000170: 507d 0cc2 a2ea 28c2 ddb0 42c2 ba3f 1cc2
00000180: 2b76 38c2 24a4 2741 b4aa 0941 d42e da40
00000190: a68f e5c1 5c3b c53f 1a6b 5b40 8212 9740
000001a0: 7701 f6c1 d34a c9be 2c5d 80c0 dbb4 86be
000001b0: 8e07 54c2 cac7 6141 9e0c c240 b743 9a40
000001c0: 28f3 a5c0 80a3 dac1 06ba bebf 2ad8 bf41
000001d0: 8e03 1cc1 041b 88c0 94e8 603f 016c 0841
000001e0: 30b3 a941 3625 57c1 06a2 9b40 b28f 9a40
000001f0: c0ad a2c0 d038 11c2 d4b3 d0c1 52f0 47c1
00000200: a328 0c41 cc5b 2841 2461 b63f 4fe5 9341
00000210: 2443 7640 b45b 3340 f429 f83b ad8a 9841
00000220: c5b7 5b40 048e 62c1 f227 ea40 1a8e 8d41
00000230: f0a9 7a41 deff 1a41 5677 913f 89a3 7040
00000240: 287e b140 06ad 1541 ee33 e2c1 2e17 c8c1
00000250: 4a96 0cc1 8075 8dc0 2454 55c1 bd51 06c2
00000260: 6875 d3c0 14b2 a540 f4f3 8cbf b057 0dc1
00000270: fcdf 2340 236e 34c0 109d 34c1 4f86 acc0
00000280: a640 ac40 60b8 6640 3d5c 2441 254b c841
00000290: 02bf db40 982b a43f 9979 4840 1040 5741
000002a0: 0ca7 ec3e 4e95 b9bf 3c33 abbf bca4 5d41
000002b0: c4bb cac0 78e0 9740 c007 b040 5ac2 0fc1
000002c0: 84c5 2bc0 9368 cb3e c858 88c0 384d 1cbe
000002d0: 1588 0441 4e5d bc41 eec5 0942 d648 e741
000002e0: c0fb 173f 4490 873f 9cb5 b841 ee65 3441
000002f0: 6692 8d40 3ff6 29c0 f9d8 b941 03d0 de40
00000300: 9160 a5c1 1fe3 adc1 2661 b3c1 b32a aac1
00000310: 8af4 62c1 1e11 71c1 85bd 4341 dc10 93c0
00000320: b827 03c1 2977 39c1 209a eac1 dce2 29c2
00000330: 730a 94c1 5279 c1c1 b346 59c2 633f 9dc2
00000340: 4234 09c0 9499 a5c0 0b9b dcc1 c432 b5c0
00000350: f636 a73f fab0 f2c0 e669 853f 9a59 4ac1
00000360: 8e95 0340 62e2 1bc1 847b 8bc0 d0bb a941
00000370: daa7 343e 9cb3 14c2 4349 dbc1 aa0b 12c1
00000380: ec99 c740 0f60 03bf 0e52 2e41 d7c3 3740
00000390: 9a00 81c0 46c9 c2c0 4853 e740 667a ecbf
000003a0: 1863 ad3f 6494 08bf 0dc9 0d41 8c97 dfc0
000003b0: 101d e63f c399 be3e d294 8840 7a44 65bf
000003c0: 7c27 0041 056d 7041 aa64 7b41 1341 3541
000003d0: 4689 d2c0 72c8 e0c0 6e9b 39c1 ab7f 3ec0
000003e0: 4117 a4c1 b0e3 bdc0 480b 35c1 b688 0a41
000003f0: 1e59 3ac2 4ce4 31c2 7a1a 48c1 60f5 56c1
-15.919924 -7.2735424 -3.1130316 -11.482689 -3.7841182 5.65489 -15.782425 -8.506668
-5.6409454 -14.339191 -2.9282656 -3.6297383 -4.4029694 28.559246 -3.0123928 -8.796
-6.8084354 -5.237399 -10.722151 -61.37365 2.6279387 3.4196289 -16.361996 -20.411318
-9.071009 -0.73390245 -18.593342 -20.73647 -7.2921953 -8.435605 -22.48339 -38.77597
-7.723633 -3.7421994 -1.738919 11.691023 -6.1165915 -3.4781306 5.700632 9.001028
-12.165926 -4.1206427 0.96295166 4.262804 -5.1426096 21.27471 14.3690815 5.9461102
31.873846 12.396451 11.753638 28.372873 11.772109 -9.862869 -9.698164 5.356866
-4.9191647 -2.450505 1.92455 8.121004 -7.5557156 18.319885 19.96592 19.87729
-42.482563 -87.31196 -86.40752 -76.728386 -16.840809 -44.935238 -74.61817 -74.640915
-12.183731 -57.24437 -79.81544 -71.85285 -1.5723026 -33.66293 -57.212048 -43.13344
-5.4176283 -16.457138 -3.377241 -4.6257133 -7.9898233 -24.382069 1.4306192 -15.670313
-6.423381 -27.590147 -13.443073 -31.515656 -35.122375 -42.229134 -48.672718 -39.062233
-46.1154 10.477573 8.604176 6.8182163 -28.69514 1.540874 3.428412 4.7210093
-30.750715 -0.393149 -4.0113735 -0.26309857 -53.007378 14.111277 6.06404 4.820766
-5.185932 -27.329834 -1.490052 23.980549 -9.750868 -4.253298 0.87854886 8.526368
21.212494 -13.446585 4.8635283 4.830041 -5.0837097 -36.30548 -26.087807 -12.496172
8.759921 10.522411 1.4248395 18.486967 3.847848 2.802472 0.0075733606 19.067713
3.4330914 -14.159672 7.317376 17.694386 15.666489 9.687468 1.1364543 3.7599814
5.54665 9.354742 -28.275356 -25.011318 -8.786692 -4.4205933 -13.333042 -33.579823
-6.608082 5.177988 -1.1011949 -8.833908 2.560546 -2.8192222 -11.288345 -5.391395
5.3828917 3.6050034 10.272519 25.036692 6.8670664 1.2825804 3.1324217 13.45314
0.46221197 -1.4498689 -1.337501 13.852718 -6.3354206 4.746151 5.500946 -8.984949
-2.6839304 0.3972822 -4.2608376 -0.15263832 8.283223 23.545559 34.44329 28.910564
0.59368515 1.0590901 23.088676 11.274885 4.424121 -2.6556547 23.230944 6.962892
-20.672152 -21.735899 -22.422436 -21.27085 -14.184702 -15.066679 12.233769 -4.595808
-8.197197 -11.591592 -29.325256 -42.471542 -18.505102 -24.184238 -54.319042 -78.6238
-2.1438146 -5.1749973 -27.575705 -5.662447 1.3063648 -7.5841036 1.0422943 -12.646875
2.056003 -9.742769 -4.3588276 21.216705 0.17642155 -37.1754 -27.410772 -9.127848
6.2375393 -0.5131845 10.895033 2.871328 -4.0313234 -6.0870695 7.228916 -1.8474853
1.3545866 -0.53351426 8.861585 -6.9872494 1.7977619 0.37226686 4.2681665 -0.8955761
8.00964 15.026616 15.712076 11.328387 -6.579257 -7.0244684 -11.600447 -2.9765422
-20.511354 -5.934044 -11.315254 8.658377 -46.58703 -44.472946 -12.506464 -13.434906

conv_2d1.bias f4 [16]
00000000: 6869 0f41 417c ce41 adc2 8141 2e4a dec1
00000010: 27ae 71c2 42d6 4a41 5080 f740 b09a 6bc2
00000020: 7be0 2042 c863 4d42 2268 cfc0 468a 37c1
00000030: d46e b3c1 4854 bb40 4a8a 0ac1 6a05 6cc2
8.963234 25.81067 16.220057 -27.78622 -60.42007 12.677309 7.734413 -58.901062
40.21922 51.347443 -6.4814615 -11.471258 -22.429115 5.8540382 -8.658762 -59.005287

conv_2d2.weight f4 [32, 16, 4, 4]
00000000: b32f 1541 7ce0 2bc1 ca52 c440 d573 6041
00000010: 9d5d 8a41 d6da e840 d94f 3241 b95d e641
00000020: e53d b241 9868 97c0 4fc0 4741 883b 0f42
00000030: 86fc 9040 6b75 a3c1 1006 c2c0 c3cc 0542
00000040: 58ff 1e40 5562 adc1 40e1 8ac0 3462 a3c1
00000050: 2ac5 1941 7241 76c1 5c04 01c1 cc2a dac0
00000060: 22fe 1941 b00e 85c1 3ab0 18c0 ae55 2240
00000070: 69ef b341 c848 2dc1 081d 80c1 aad2 53c1
00000080: 1e4d 52c2 fd02 88c2 5a1f 53c2 2ad9 34c2
00000090: c392 33c2 4219 55c2 68fe 29c2 8b72 a4c1
000000a0: 3d7e 3dc2 f116 68c2 8e68 e3c1 bc7f c7c0
000000b0: b9b5 0cc2 ba15 76c2 cff7 29c2 c01e d5c1
000000c0: 4827 4342 d65e 6e42 a4c9 6042 776a 9d42
000000d0: ed1d 0c42 2073 0942 f247 1242 8dec 3142
000000e0: 7ac0 1742 fbb1 f941 1cae 0442 00dd df41
000000f0: 6705 1d42 18d2 2e42 e683 3442 962f 2242
00000100: e53e b442 c016 bc42 9bca 9c42 afce 8042
00000110: b516 8d42 4cf7 9a42 d68d 7742 8624 2342
00000120: f1a6 8842 0196 8242 87e3 7342 7629 1142
00000130: a9d7 4f42 1a9b 0c42 5d31 0942 6fa9 2d42
00000140: 07b4 d342 6d39 8142 ef53 8442 2c93 4e42
00000150: 3151 c942 1b14 8742 f481 8242 107a 8942
00000160: 52ad b542 4c35 5b42 6fe2 6842 f9f5 8442
00000170: d8cd a742 0e43 2142 4e61 2342 7f28 4142
00000180: 935c eec1 2434 71c1 5ef7 0f42 efbd 2f42
00000190: a5be 98c1 747b 523e 12db 2a42 8cea 8342
000001a0: ac2f 30c1 6808 5fc0 c2af 3942 5125 8e42
000001b0: 8303 9bc1 2225 38c1 6757 0b41 6f74 c341
000001c0: 0543 1142 f9fd 6042 63f3 7042 8454 9d42
000001d0: 9a57 9c41 6f45 f441 0402 2442 5dfe 6942
000001e0: 8016 6c41 674d 1d42 38fb 5442 10c8 7942
000001f0: 97ec 1642 a617 6242 fa0a 8a42 8094 a942
00000200: 9acc a141 3ddb 8ac1 6d21 01c1 9f10 e5c1
00000210: e2e6 cf41 12b6 1fc0 84f9 22c1 ea04 6fc1
00000220: ab85 d941 71db 18c1 952a 80c1 daeb 05c1
00000230: 960b f041 e287 3bc1 afd0 f7c1 1d68 a1c1
00000240: 1e9b c3c0 f33b b8c1 58e8 2cc1 cb76 c0c1
00000250: 2a43 bcc0 5d8a 4fc1 5c0a 62c1 9669 a2c1
00000260: 65d3 65c0 c148 8fc1 7ebe 6cc1 5ea6 65c1
00000270: 68d1 2bc0 fb7c c0c1 1eec c5c1 0371 fbc1
00000280: 2c7c bbc2 7a13 acc2 bd17 13c2 e5b4 0141
00000290: 9b3d b9c2 a867 c1c2 be93 31c2 5027 ecc0
000002a0: 5651 bac2 4266 73c2 b239 67c1 1451 29c1
000002b0: c301 a2c2 98f9 18c1 350a 0a41 1e08 02c2
000002c0: c30d cd41 fd44 2c42 ba3d 9042 704f 8742
000002d0: 1a84 f840 7c4f 6041 fabb 3942 14ed 1c42
000002e0: d038 0742 5dfe 1b42 a5f0 7442 9549 2b42
000002f0: 7662 3b42 ade3 5242 aaf6 8042 df40 5542
00000300: 05b2 db41 2e84 1041 2c98 f241 b0bd 5c41
00000310: 67d2 2942 af7b bd41 1467 5542 bf8d 2842
00000320: 0369 e441 44d1 9541 26bd 3942 9e20 0f42
00000330: e09d 7341 0ef3 aac1 5a0a 8541 d139 1141
00000340: 775f dc41 3267 37c0 c251 a540 8e81 bb40
00000350: 1dc9 f141 24de 78c0 80ec 76bf a155 6241
00000360: 3c3c ec41 2aaf 88c1 1aab 2cc1 d964 9241
00000370: 858f 0e42 fff6 7bc0 2a12 2dc1 ea70 7240
00000380: c88a 67c1 88fc 78c1 59d6 1c41 6463 1942
00000390: 583e a6c1 fb95 cac1 8d1a 8541 c688 b741
000003a0: 98a2 1ac1 a417 8640 82c6 7941 dbfd a241
000003b0: b4dd 91bf e4dc 2c42 a5a2 5c42 dddd 3441
000003c0: 715a 9442 0177 a242 7a8d 1542 6da3 7442
000003d0: 2d83 2e42 4a9a 2942 0f5e b541 e330 4542
000003e0: 8add ca41 0a3d 2641 4cff 5bc0 3a19 9341
000003f0: e859 0341 f6e5 ffc0 443e 9a40 c0eb 9d41
9.324145 -10.742306 6.135106 14.028279 17.29571 7.2767134 11.144494 28.795763
22.280222 -4.731518 12.48445 35.808136 4.5308256 -20.432333 -6.06324 33.449963
2.484335 -21.673014 -4.3399963 -20.42295 9.610636 -15.390978 -8.063564 -6.817724
9.624544 -16.632172 -2.385756 2.5364795 22.4919 -10.830269 -16.014175 -13.238932
-52.57531 -68.00584 -52.780617 -45.212074 -44.893322 -53.274666 -42.498444 -20.55593
-47.37328 -58.022404 -28.426052 -6.2343426 -35.177464 -61.521217 -42.492 -26.640015
48.78836 59.592613 56.196915 78.70794 35.029224 34.362427 36.57026 44.481007
37.937965 31.211905 33.17003 27.98291 39.255276 43.70517 45.128807 40.54647
90.12284 94.04443 78.39571 64.40368 70.54435 77.483 61.88851 40.785667
68.32606 65.29298 60.972195 36.29049 51.960606 35.151466 34.298206 43.415462
105.851616 64.61216 66.16393 51.643723 100.65858 67.53927 65.253815 68.7384
90.83852 54.802048 58.221127 66.480415 83.90204 40.315483 40.845024 48.289547
-29.795202 -15.07523 35.99157 43.935482 -19.093088 0.20554906 42.713936 65.9581
-11.011639 -3.484888 46.42164 71.07288 -19.376715 -11.509066 8.708838 24.431852
36.31545 56.24802 60.237682 78.66507 19.542774 30.533903 41.00197 58.4984
14.755493 39.32559 53.24533 62.445374 37.731045 56.523094 69.02144 84.79004
20.224903 -17.35705 -8.070661 -28.633116 25.987736 -2.4954877 -10.185917 -14.9387
27.190268 -9.553575 -16.020792 -8.370081 30.005657 -11.7206745 -30.976896 -20.175837
-6.112685 -23.029272 -10.806725 -24.058004 -5.8831987 -12.97128 -14.127529 -20.301556
-3.5910275 -17.910524 -14.796507 -14.353117 -2.6846561 -24.061026 -24.740292 -31.430182
-93.74252 -86.03804 -36.773182 8.106664 -92.62032 -96.70245 -44.39428 -7.379799
-93.15886 -60.84986 -14.451586 -10.582294 -81.00344 -9.560936 8.627492 -32.507927
25.63172 43.06737 72.12056 67.65515 7.7661257 14.019405 46.43357 39.23152
33.80548 38.9984 61.235004 42.821857 46.846153 52.72234 64.481766 53.31335
27.461924 9.03227 30.324303 13.79631 42.45547 23.685392 53.350662 42.138424
28.551275 18.72718 46.434715 35.781853 15.226044 -21.36868 16.630054 9.076615
27.546614 -2.8656735 5.16623 5.859565 30.2232 -3.8885584 -0.9645462 14.1459055
29.529411 -17.08553 -10.791773 18.299242 35.640156 -3.9369504 -10.816935 3.7881417
-14.471382 -15.561653 9.802331 38.34706 -20.780441 -25.323233 16.637964 22.941784
-9.664696 4.190386 15.610964 20.373953 -1.1395783 43.215714 55.158833 11.304166
74.17664 81.23243 37.38816 61.159595 43.6281 42.400673 22.670927 49.29774
25.358173 10.389902 -3.437457 18.387318 8.20945 -7.9968214 4.820101 19.740112

conv_2d2.bias f4 [32]
00000000: 42d0 83c2 6555 a442 37ad 3c42 8135 1541
00000010: 748f 3242 277e 2bc3 efa3 8342 4a5b e742
00000020: 990a 3a41 bf3b 2542 60f8 e041 08ab 3942
00000030: 4408 a242 79ac 45c1 d31b 7942 e900 cac2
00000040: 235a a7c1 bacd 6740 7389 c1c2 4c0d 8042
00000050: 963f 50c2 b1b7 fec1 de80 2f42 9dfd b4c2
00000060: ff25 78c2 0fef 1b42 9f04 4dc2 0bab e741
00000070: cc3c 8e42 3a04 59c2 4e3c f2c1 c315 8742
-65.90675 82.16679 47.169155 9.3255625 44.64009 -171.49278 65.82018 115.6783
11.627587 41.308346 28.121277 46.417023 81.01614 -12.354608 62.277172 -101.00178
-20.919012 3.6219316 -96.768456 64.02597 -52.062096 -31.839693 43.875847 -90.49534
-62.037106 38.983456 -51.254513 28.958517 71.118744 -54.254128 -30.279446 67.5425

conv_2d3.weight f4 [32, 32, 4, 4]
00000000: 179b 43c2 2ce1 05c2 4b53 e7c1 61f5 39c2
00000010: 6d21 1ec2 a02f bdc1 8a75 b2bf d839 fc40
00000020: 340a 86c1 d682 8040 a638 1f41 fecd b841
00000030: c102 59c1 b7b1 9ac1 e238 60c1 ce4e d73f
00000040: 4ab3 3e42 2274 0340 cce9 07c2 bb1c 52c2
00000050: 348a 5e42 1cb8 93c1 cb25 d0c1 57f4 3fc2
00000060: 5685 1f42 18cb 2ac2 c626 2dc0 0c88 23c2
00000070: ac1a 5e42 5f1c 52c1 ec68 e740 5c66 ccc1
00000080: eca2 67c2 a50c 63c2 9bd8 f3c1 36ca 8ac2
00000090: 5da5 42c2 d8de 14c2 7bd2 5f40 fb81 9fc1
000000a0: 872a 39c2 94f8 23c0 6bd8 3b42 f4cf 8441
000000b0: d105 44c2 ce0a 4440 da4a 0d42 e9ac 2242
000000c0: 349a d3c1 35a9 fac1 d2cb 2ec2 6aeb 5641
000000d0: 9828 c541 d454 cbc0 8a44 dec1 e272 7141
000000e0: f04c 8941 b475 1942 ecbd 94c0 a480 5741
000000f0: 902c a141 7c59 0e41 c807 8ac1 9cc2 51c2
00000100: 436d a441 42f0 4741 0434 2142 2f42 383f
00000110: 4001 f441 7c63 2341 25fd e641 7c39 9b40
00000120: e754 8a41 5472 b1bf 2625 0bc1 255f 00c2
00000130: daf9 8d41 7397 9a41 b430 a541 d4ad 093e
00000140: 3a34 bbc1 ba7c b5c1 81ce 29c2 0b3f b6c1
00000150: 6aaa a2c1 4805 9ec1 894f 12c2 b6cf abc1
00000160: e87a 87c1 63c2 35c1 b746 32c2 b375 d4c1
00000170: 0374 f2c1 503f d7c1 ddaa 3fc2 4710 c3c1
00000180: 0489 f841 94d1 3341 ce6b 4fc2 cc65 e540
00000190: 9104 8041 7448 4b41 b2c5 4140 882c 5442
000001a0: 338d 9e3e ae08 63c0 74d6 04c1 a225 1a42
000001b0: 2298 ae41 5c65 2342 abb7 3541 e6f2 1e42
000001c0: f49e 81c2 f828 b4c2 d443 afc2 64ec 13c3
000001d0: 444b 70c2 8e28 90c2 51d3 9bc2 018e 05c3
000001e0: 1a29 39c2 cf8d 41c2 c551 83c2 4a72 bec2
000001f0: 6a95 53c2 186d 5cc2 3386 62c2 36c8 e4c2
00000200: 8e00 90c2 535e 2ac2 7e18 93c0 14c2 1dc2
00000210: c447 97c2 598c 0ec2 3e70 2540 62c2 a3c1
00000220: 1ece 80c2 d3c7 8fc1 26f6 1441 42d7 b8c0
00000230: ac29 3ec2 8bc2 75c1 3237 b9c0 1d36 34c2
00000240: b771 4c42 7e6f 8642 42d9 8142 9904 c842
00000250: 7c4b 2e42 662f 2e42 b6b1 1342 b2cd b542
00000260: 2245 f341 0235 de41 7f04 0d42 d4ad b142
00000270: f3d9 7540 fbb8 1c41 4d1a 8f41 e3ef 8042
00000280: 8c9e 86c2 498c 8fc2 e31e c4c2 6d16 c2c2
00000290: 2f77 b2c1 9089 fec1 247c 94c2 0cdf 83c2
000002a0: 95ed 56c1 5992 acc1 eba0 11c2 1aef 5cc0
000002b0: 321b f2c1 5870 81c1 fcd6 6dc2 cf26 01c2
000002c0: fe5b 0d42 1d56 fa41 3d6b 68c0 c817 ddc0
000002d0: ac63 5742 9ade 0542 682f bec0 9552 2c41
000002e0: 839b 7042 6d56 c641 40a3 19c0 5c7b 8941
000002f0: 64d4 0c42 daf6 35c1 a45f 50c1 623f f540
00000300: 3921 fbc1 b37e dfc1 b29c 1441 cce2 25c1
00000310: 866a 5341 d0a1 b2bf 1c11 1942 1cd2 f1be
00000320: 0262 2d41 840f b740 2473 4742 682d 3541
00000330: 57f8 d641 fcb5 1542 3547 9e42 b1c2 0642
00000340: 6c41 aec0 2a6f 8e41 ab46 c0c1 fa21 1bc2
00000350: c099 ec3f 2c2a be40 9c04 a0c0 bd65 b1c1
00000360: 7137 0cc0 9b45 5540 8e43 ddc0 b731 68c1
00000370: 1b3a d241 5471 3242 8ed6 7e42 10c2 e641
00000380: eb4a d9c2 310e 62c2 afe4 0cbf 71b4 3ac1
00000390: 0d80 24c2 76e3 8ac0 6daa 3e42 d6d8 2342
000003a0: 1009 c1c0 39f8 2042 1881 9442 78bf af41
000003b0: f10b c241 97a7 8d42 65f6 bb42 9d72 7f42
000003c0: 7827 19c1 534f a0c1 7558 7bc2 afe9 47c2
000003d0: 2319 2940 9c49 a9c0 8b63 5cc2 56ae 2ac2
000003e0: 4a46 9ebf 5e9f 953f 803a 03c2 b4d3 54c1
000003f0: dce6 a940 4ea9 e2bf 1cf3 15c2 8e79 59c1
-48.901455 -33.469894 -28.91567 -46.489628 -39.532642 -23.648254 -1.394212 7.882061
-16.754982 4.015971 9.95133 23.100582 -13.563172 -19.336775 -14.013887 1.6820924
47.675087 2.0539632 -33.978317 -52.528057 55.634964 -18.464897 -26.018454 -47.988613
39.88021 -42.698334 -2.7054915 -40.88286 55.526047 -13.131927 7.231558 -25.54998
-57.909103 -56.76235 -30.480764 -69.39494 -48.661488 -37.21762 3.4972217 -19.938467
-46.29153 -2.562047 46.961346 16.60154 -49.00568 3.0631595 35.323097 40.668858
-26.450294 -31.33262 -43.699043 13.432474 24.644821 -6.354105 -27.783466 15.090548
17.162567 38.364944 -4.648184 13.468906 20.146759 8.896847 -17.2538 -52.44005
20.55335 12.496157 40.300797 0.7197599 30.50061 10.211788 28.873606 4.850767
17.291456 -1.3863015 -8.696569 -32.092915 17.746998 19.32395 20.64878 0.13445216
-23.400501 -22.685902 -42.451664 -22.780783 -20.33321 -19.752579 -36.57767 -21.476421
-16.935013 -11.359958 -44.569057 -26.55747 -30.306646 -26.905914 -47.91686 -24.382948
31.066902 11.238667 -51.855278 7.1686764 16.00223 12.705189 3.0276914 53.043488
0.309671 -3.5474048 -8.302357 38.53675 21.824284 40.848984 11.357341 39.737206
-64.810455 -90.08002 -87.63248 -147.9234 -60.0735 -72.07921 -77.91273 -133.5547
-46.29014 -48.388485 -65.659706 -95.22322 -52.895912 -55.106537 -56.631054 -114.39104
-72.00108 -42.592113 -4.59674 -39.43953 -75.64017 -35.63706 2.5849757 -20.469913
-64.40257 -17.97257 9.310095 -5.7762766 -47.540695 -15.359996 -5.7879877 -45.052845
51.11105 67.21776 64.92433 100.00898 43.573715 43.546288 36.923546 90.90175
30.408756 27.775883 35.25439 88.83951 3.8414276 9.795161 17.887842 64.46853
-67.30966 -71.773994 -98.060326 -97.0438 -22.308195 -31.81717 -74.24246 -65.93564
-13.433003 -21.571459 -36.407146 -3.4520936 -30.263279 -16.179855 -59.459946 -32.2879
35.339836 31.292048 -3.6315453 -6.909153 53.847336 33.467384 -5.943287 10.770162
60.151867 24.7922 -2.400589 17.185234 35.207413 -11.3727665 -13.02335 7.663987
-31.391222 -27.936865 9.288256 -10.36787 13.213507 -1.3955631 38.26671 -0.47230613
10.836428 5.720644 49.862442 11.3235855 26.87126 37.42772 79.13908 33.69013
-5.445486 17.80428 -24.034506 -38.78318 1.8484421 5.942648 -5.0005627 -22.174677
-2.1908839 3.3323734 -6.9144964 -14.512137 26.278372 44.610672 63.709526 28.844757
-108.646324 -56.51386 -0.55036443 -11.669053 -41.12505 -4.340266 47.66643 40.961754
-6.0323563 40.242405 74.25214 21.96849 24.25583 70.827324 93.98124 63.861927
-9.572136 -20.038733 -62.836384 -49.978207 2.6421592 -5.2902355 -55.09721 -42.67025
-1.23652 1.168926 -32.80713 -13.301685 5.309431 -1.7707918 -37.48741 -13.592176

conv_2d3.bias f4 [32]
00000000: 663d 3743 aed8 86c3 be8e 0742 bd3c 2ac3
00000010: 4f2a 86c3 999e 97c3 0da8 df42 8ef1 87c3
00000020: f637 24c3 fbec 3243 c81c 7dc3 e415 4fc3
00000030: 4133 8dc3 289c 80c3 c497 65c3 557d 31c3
00000040: 5e89 93c3 a661 6dc3 1fdd 2843 1f06 88c3
00000050: 7ca1 6ec3 6603 7dc3 769b 85c3 4418 34c3
00000060: 0a1f 5ac3 68f4 4c43 4954 8ac3 66d7 5dc3
00000070: d362 57c3 4c97 3ac3 dda3 8ec3 7329 2ec3
183.23984 -269.6928 33.889397 -170.23726 -268.33054 -303.23904 111.828224 -271.88715
-164.2186 178.9257 -253.11243 -207.08551 -282.40042 -257.21997 -229.59283 -177.48958
-295.07318 -237.38144 168.86375 -272.04782 -238.6308 -253.01328 -267.21454 -180.09479
-218.12125 204.95471 -276.65848 -221.8414 -215.38603 -186.591 -285.28018 -174.16191

conv_2d4.weight f4 [32, 32, 4, 4]
00000000: e0b7 56c2 d011 80c2 4eb9 07c2 126e 47c2
00000010: e0dc 65c2 63dd 42c2 c5eb f5c1 2020 56c2
00000020: 2dc0 12c2 6475 3bc2 baed 35c2 3df6 06c2
00000030: 9992 ebc1 56c5 77c2 5833 28c2 c3fa a3c1
00000040: 8c58 0443 6138 d142 18a7 c242 9fed e642
00000050: 0cb7 b742 b46a 8d42 32aa 7542 cc30 8942
00000060: eb12 ab42 3318 9142 6629 8642 495c 9442
00000070: a7ab c642 8867 c642 218b d042 97fa d842
00000080: 3de9 b842 9376 3e42 18d5 c5c0 63b6 54c0
00000090: 4996 b142 d1b4 6842 19ec 8f41 6a69 be40
000000a0: 9412 c442 5c6e a742 babf ea41 1e6b bb40
000000b0: ea52 e342 b1d1 ac42 b02e c841 e0a6 63bf
000000c0: 8940 9e42 7c96 7d42 d426 a542 c5eb bf42
000000d0: 3e0b 8c42 8600 aa42 0b57 9542 5404 a142
000000e0: 6cac 8042 40fd 8642 abd5 8942 d229 9142
000000f0: a288 9e42 3e4e 9242 1835 a342 ae22 9942
00000100: 57d3 8042 220d 2942 748c 0e42 bcbd 2142
00000110: cc8d 6c41 6b61 b4c1 bed9 d7c1 04a9 cac1
00000120: dc54 1842 7206 d73f 1d18 b841 2039 1442
00000130: bc8e 4b42 7415 df41 79c3 4142 a40b 3c42
00000140: 967c d142 e3b9 a942 f4b0 3d42 f583 5042
00000150: 60c9 1d42 e201 d540 fe95 f140 c68c 5a41
00000160: 6185 8742 9d5c 6342 34d6 5b42 836c 3b42
00000170: 237f ac42 d0c7 9e42 bb2a 9742 297e 7542
00000180: d865 95c2 314d b3c2 f188 8dc2 112c 8cc2
00000190: cdae a9c2 20c8 9cc2 1e77 92c2 5879 72c2
000001a0: 984d acc2 f576 aec2 deae 3bc2 d9aa 08c2
000001b0: 54b3 c6c2 8563 b6c2 3c2a adc2 4ff2 92c2
000001c0: e885 bf42 1614 9842 2462 2142 767d 2e42
000001d0: fb90 4642 8c50 5b41 7293 3541 815b e641
000001e0: 84a3 7f42 66c1 1242 694d c041 f49a 3542
000001f0: e7ac 8442 d31b ed41 5e2a 0142 9afc 5d42
00000200: de70 b342 44e5 9042 fda6 6942 faf2 5942
00000210: 4472 8342 71cd 5842 0bec 2042 4ed2 b341
00000220: d534 9142 17cb 7042 2933 9342 64a7 8542
00000230: d7c8 bc42 7cdd 8942 aa50 b342 60cb 9f42
00000240: 883e 62c1 f33e 2ac2 b29a cd40 6525 2542
00000250: e8da 99c2 4d3b 7ec2 a85c d7c1 b200 9dc1
00000260: b339 eac1 ce17 23c2 06b9 7441 5f36 1142
00000270: 0a0e 07c2 9a51 29c2 c634 08c1 4255 1fc1
00000280: 81d2 e242 8cce d642 5226 c742 3daf d342
00000290: ca37 9842 79d5 b042 153f 3942 8a3a 3142
000002a0: 74d9 bb42 ec5e b442 1491 5d42 387f 7c42
000002b0: 41c9 eb42 e26b d942 4d5d bb42 3513 ca42
000002c0: a8ab 0343 e194 d942 2da9 5442 4e51 8442
000002d0: 55e0 ca42 704f ae42 25b3 a442 babd 6942
000002e0: 10a9 d142 ec5d aa42 79fc 9642 f689 8c42
000002f0: 5a66 e242 89b8 a942 0d23 a242 9e72 9942
00000300: 35d3 b742 622d 6c42 51be 0942 9831 5542
00000310: ba19 e641 0a65 0ac2 6cc3 90c0 8065 c2bf
00000320: 628e 5c42 5c12 d441 7d99 2842 645a 3f42
00000330: f1fc 7742 52f6 3c42 e65e 7342 9c16 7842
00000340: 3a2e bf42 6945 6b42 869d 5842 9f8d 9142
00000350: 9f07 8142 9585 a641 55ef 0342 6815 ff41
00000360: 1dc4 7c42 4bd9 d141 6456 4b42 2b57 8842
00000370: 4fd8 8342 67c9 fc41 80e8 8442 bb52 a042
00000380: fdcf a842 a7d6 6142 b9f8 8f42 5f5b ad42
00000390: 7a29 7342 20b9 e241 1c17 a241 672f cf41
000003a0: cb49 8942 4515 5042 01b4 6c42 72af 6342
000003b0: e405 9142 a24b 8742 a917 b142 22a0 a442
000003c0: 3a1a a742 06dd 4e42 2cb2 6942 cad8 af42
000003d0: 8b01 8a42 4679 2a41 0d62 fd41 0d5e 9042
000003e0: 5f88 a042 4e3e 1e42 6ba3 2e42 e664 8842
000003f0: 709b b942 e600 5d42 fef0 9342 cb5f cf42
-53.679565 -64.03479 -33.93096 -49.85749 -57.4657 -48.716198 -30.740122 -53.531372
-36.68767 -46.86464 -45.482155 -33.740467 -29.44658 -61.94271 -42.05014 -20.497442
132.34589 104.610115 97.326355 115.4641 91.85751 70.708405 61.416206 68.59531
85.53695 72.547264 67.08086 74.180244 99.33526 99.20221 104.271736 108.48943
92.45554 47.615795 -6.1822624 -3.323632 88.793526 58.17658 17.990282 5.950368
98.036285 83.715546 29.343616 5.856826 113.66194 86.40955 25.022797 -0.88926506
79.126045 63.396957 82.575836 95.96049 70.02196 85.00102 74.670006 80.50845
64.33676 67.49463 68.91732 72.58168 79.26686 73.15282 81.6037 76.56773
64.41277 42.262825 35.63716 40.435287 14.784618 -22.547567 -26.98132 -25.332527
38.08287 1.6798842 23.011774 37.055786 50.88939 27.885475 48.44089 47.011368
104.74333 84.86306 47.422806 52.128864 39.446655 6.65648 7.5495596 13.6593685
67.760506 56.840443 54.959183 46.85597 86.248314 79.39026 75.58346 61.373203
-74.69891 -89.650764 -70.76746 -70.08607 -84.84141 -78.39087 -73.23265 -60.6185
-86.15155 -87.23234 -46.92077 -34.166843 -99.35025 -91.194374 -86.58249 -73.47326
95.761536 76.03923 40.34584 43.62252 49.641582 13.707165 11.348497 28.79468
63.909683 36.688866 24.037798 45.40132 66.3377 29.638586 32.291374 55.49668
89.72044 72.447784 58.413074 54.48728 65.723175 54.200626 40.23051 22.477688
72.60319 60.19833 73.59992 66.826935 94.392265 68.93259 89.65755 79.89722
-14.140266 -42.561474 6.4251337 41.28652 -76.92755 -63.55791 -26.920242 -19.62534
-29.278173 -40.773247 15.295172 36.303097 -33.76371 -42.32969 -8.512884 -9.958315
113.41114 107.40341 99.574844 105.84226 76.10896 88.41694 46.311604 44.307167
93.92471 90.185394 55.391678 63.124237 117.893074 108.71071 93.68223 101.03751
131.67053 108.79078 53.16521 66.1588 101.43815 87.15515 82.34989 58.43528
104.8302 85.18344 75.49311 70.269455 113.199905 84.86042 81.06846 76.72386
91.91251 59.04432 34.435856 53.29843 28.762562 -34.59867 -4.523855 -1.5187225
55.139046 26.508965 42.14989 47.838272 61.997013 47.240547 60.842674 62.02208
95.59029 58.817783 54.15383 72.7766 64.514885 20.815226 32.983723 31.885452
63.191517 26.2311 50.834366 68.17025 65.92248 31.598341 66.4541 80.16158
84.40623 56.45962 71.98579 86.67846 60.790504 28.340393 20.261284 25.898146
68.64413 52.02077 59.175785 56.921333 72.511505 67.64772 88.54621 82.31276
83.55122 51.715843 58.423996 87.923416 69.00301 10.654608 31.672876 72.18369
80.26635 39.560844 43.659588 68.19707 92.80359 55.250877 73.97069 103.687096

conv_2d4.bias f4 [32]
00000000: 2405 72c3 cd15 21c3 9dbb b9c3 e13f 27c3
00000010: 19f5 cac3 a125 30c3 d1f1 92c3 a589 bec3
00000020: 47b2 bdc3 256f a4c3 ae4a c6c3 ff00 72c3
00000030: 147e c2c0 558f a6c3 7102 96c3 706d 61c3
00000040: c54a 93c3 0fd9 d0c3 6db2 a4c3 ed21 8bc3
00000050: 4af1 4bc3 273a 2fc3 8e59 b1c3 308f 84c3
00000060: 1956 89c3 b5ca b7c3 0169 59c3 3111 38c3
00000070: c059 21c3 cfeb b4c3 f284 9bc3 1002 39c3
-242.02008 -161.08516 -371.46573 -167.24953 -405.91483 -176.14699 -293.8892 -381.07535
-379.3928 -328.86832 -396.58344 -242.00389 -6.0778904 -333.11978 -300.01907 -225.42749
-294.58414 -417.69577 -329.39395 -278.26505 -203.94254 -175.22716 -354.69965 -265.11865
-274.67264 -367.58365 -217.41017 -184.06715 -161.35059 -361.84225 -311.03864 -185.00806

fc1.weight f4 [120, 1344]
00000000: e6e0 5141 b00f 4641 4369 9341 4b93 8441
00000010: 1dbe a041 8a9b 2d41 7076 1b41 f47c 4241
00000020: 92d9 2b41 0edf 5741 6ec0 1041 068d 2040
00000030: 064d c13f 1911 0e41 70d5 2c41 9f78 3641
00000040: da9e 7041 94da 5c41 c69f 8dbf 9e1f e340
00000050: f720 1241 de7a 5441 1c07 5041 e09f 5441
00000060: 7660 ed3f fe02 0740 1c5e 2a41 2861 5c41
00000070: 6ef8 7941 2005 3d41 b786 d2be 4f06 0140
00000080: d861 4c41 b01b 2841 f06a 5441 8e6d 0e41
00000090: d36c 7440 b4a5 a840 1045 4441 70a0 6841
000000a0: 96a3 9041 e4b5 d540 df81 9f41 5519 8341
000000b0: 2e5c 5941 0975 a141 f2ea 5b41 e03e 8b41
000000c0: f529 9241 b896 3341 5c07 4040 737c 8441
000000d0: ec44 3541 a2cc 2341 3e54 6341 dcb1 a040
000000e0: b272 18c0 eca4 bf40 92e9 1641 7caa 6841
000000f0: bf43 8041 abac 1641 0e84 d240 9ab8 7041
00000100: 7c04 3c41 49ad 8241 229e 7641 3647 2641
00000110: f408 5841 03a2 8941 a606 7f41 5ebb 7f41
00000120: 73ee b441 662f 6a41 9861 8b41 3fb3 a441
00000130: eacd 9041 f333 ad41 7ade 6a41 b42a 1b41
00000140: f611 dd40 e661 7d41 bcdc 9f40 8bff 0a41
00000150: e2ba 7d41 3e07 c940 08b1 2e41 9dc1 3a40
00000160: 9873 be40 9c95 8e40 6407 4c41 0c8f 8c40
00000170: 80f4 5441 801a f4c0 6eb5 0140 c0fc 9340
00000180: fe92 4141 5279 de40 9023 c340 518e 01c1
00000190: 9c70 7ebf 8f4d febe 8eb6 c640 b034 c040
000001a0: 7c02 c340 ec16 9a3e 1379 3640 74e1 9740
000001b0: 7c7b 8b3f 0bd2 1240 4099 1441 6bf0 0a41
000001c0: 4ce0 ac40 be6f 1841 8e70 10c0 5590 5ec0
000001d0: e85b ff40 2619 3641 eb81 0741 0eb4 2741
000001e0: 4352 5ec0 66ab d8c0 f0a0 8e40 662d 7a41
000001f0: d122 2140 90d1 b83f 24aa a041 8ce5 5d41
00000200: 866c 6641 c573 b441 b8c4 b2bd 6c17 653f
00000210: d3bc 8341 2880 3e41 1ada 3940 578c 2240
00000220: ba1b cac0 49a8 05c1 4956 3541 dcaf bc40
00000230: 50db 5941 6a41 34be c8ec f6c0 5aa8 dbc0
00000240: 3088 fc40 1c6d ef40 7619 0f41 7adf ef3f
00000250: 70a1 2ac1 8cd4 2dc1 98e1 053f 664f 0440
00000260: e4c0 1c40 2e18 a440 6e5b edc0 1332 9ec1
00000270: 04dc 20c0 f04c 50be 7be0 2440 56f1 9040
00000280: 8aa1 39c1 ee80 3cc1 8e83 9cbf c62c ecbf
00000290: c694 ed3f b201 2441 0a52 34c1 8c83 86c1
000002a0: 4e64 7c41 3a3a 6f41 f2d1 6e41 f865 7241
000002b0: c8c5 3e41 bc3e c940 ccce 8941 a9d1 2341
000002c0: 2a81 5a41 3430 e940 eef6 9fbf 3879 8c40
000002d0: 38c4 7641 695b 8141 4a5e 5841 cd6b 3d40
000002e0: ccdd 2b40 c2e7 3e41 608a 3941 28a1 6241
000002f0: 4d3f 2c41 9cae c640 cc74 a540 80c7 41bf
00000300: 59a0 0841 880b 3841 6d00 8341 d6af 5d41
00000310: 0f24 1541 a4f0 db40 a24f 4940 b0f0 6640
00000320: b2ec 3241 56f5 8041 c227 3e41 a6ee 3241
00000330: b564 6cc0 a430 ebc0 ac03 8340 b158 2d41
00000340: 821d d340 7381 48c0 8f32 8941 f6d0 1341
00000350: 24a3 3e41 583f ee40 0b22 3c40 7a51 6941
00000360: 7a74 2e41 aed3 4b40 5f50 5dc1 ec05 60c1
00000370: 9be4 31c0 7c61 8f40 d005 773f 7c64 aec0
00000380: cc44 51c1 c806 98c1 3aa7 8bc0 c8e0 b940
00000390: d029 3bbf 1e7d 1bc1 14ae 79c1 759b 22c1
000003a0: 7eed ebc0 6c0d 4941 6c55 233f dfc8 7bc0
000003b0: 0680 27c0 009b 10c1 34d0 eebf bd9c 4841
000003c0: dab3 d03f 9fe3 57c0 949a b9bf e460 20bf
000003d0: 52ab 8c40 7096 7841 80da 32c0 d2f5 b5c0
000003e0: 544a a7c0 b44b d2c0 1042 9cc0 f4a4 b63f
000003f0: 6a92 5241 fae7 8741 c9a4 ac41 ced3 2541
13.117407 12.37883 18.426397 16.57192 20.092829 10.850473 9.716415 12.155506
10.740618 13.491957 9.04698 2.5086074 1.5101631 8.879174 10.802109 11.4044485
15.038782 13.803364 -1.1064384 7.0976095 9.133048 13.279997 13.001736 13.289032
1.8545063 2.1095576 10.647976 13.77372 15.623152 11.813751 -0.41118404 2.01601
12.773888 10.50676 13.276108 8.901747 3.819142 5.2702274 12.266861 14.539169
18.079876 6.6784534 19.938414 16.38737 13.585005 20.182146 13.74486 17.4057
18.270487 11.224297 3.0004492 16.560766 11.329327 10.237459 14.208067 5.0217113
-2.3820004 5.988882 9.432024 14.541622 16.03308 9.417155 6.57862 15.045069
11.751095 16.334612 15.413607 10.3923855 13.502186 17.204107 15.939123 15.983244
22.61643 14.636572 17.422653 20.587523 18.100544 21.650366 14.679316 9.697926
6.9084425 15.836401 4.995695 8.687388 15.858126 6.282134 10.9182205 2.9180672
5.9516106 4.455763 12.751804 4.392462 13.309692 -7.628235 2.0266986 4.6246033
12.098387 6.9523096 6.098091 -8.097245 -0.9939058 -0.49668548 6.2097845 6.0064316
6.0940533 0.30095613 2.8511398 4.746271 1.089706 2.29407 9.287415 8.683696
5.40238 9.527281 -2.2568698 -3.4775593 7.979969 11.38114 8.469218 10.481459
-3.4737709 -6.7709227 4.4571457 15.636084 2.51775 1.4438953 20.083076 13.868542
14.401495 22.556528 -0.087289274 0.89488864 16.4672 11.906288 2.9039369 2.5398157
-6.3158846 -8.353585 11.333566 5.896467 13.616043 -0.17603078 -7.716404 -6.8643007
7.8916245 7.482069 8.943716 1.8740075 -10.664413 -10.864391 0.52297354 2.067346
2.449273 5.1279516 -7.417411 -19.77445 -2.5134287 -0.2034185 2.5762012 4.52946
-11.601938 -11.781477 -1.2227647 -1.8451164 1.8561027 10.250414 -11.270029 -16.814232
15.774488 14.951715 14.926256 15.149895 11.923286 6.288908 17.225975 10.238687
13.656534 7.287134 -1.2497232 4.389797 15.422905 16.169634 13.52302 2.9597046
2.6854124 11.9315815 11.596283 14.164345 10.765454 6.2088146 5.1705074 -0.7569504
8.539147 11.502815 16.375208 13.855429 9.321303 6.873125 3.1454854 3.6084404
11.182787 16.119793 11.8847065 11.183264 -3.6936467 -7.3496876 4.094198 10.834153
6.597352 -3.132901 17.149687 9.238516 11.914829 7.4452324 2.9395778 14.582392
10.903437 3.184795 -13.832122 -14.001446 -2.779578 4.48065 0.96493244 -5.449766
-13.079296 -19.003311 -4.3641634 5.808689 -0.73110676 -9.718046 -15.605 -10.162953
-7.3727407 12.565777 0.6380222 -3.9341352 -2.617189 -9.037842 -1.8657289 12.538266
1.6304886 -3.373268 -1.4500299 -0.62647843 4.395913 15.536728 -2.7945862 -5.6862574
-5.2278233 -6.571741 -4.8830643 1.426909 13.160746 16.98827 21.580462 10.36421

fc1.bias f4 [120]
00000000: fbc6 bfc1 b25b bb41 d3a8 52c0 311a 0bc1
00000010: 4283 4d41 6a9a 55c1 f6a9 9ac1 5eda 5dc0
00000020: 7876 22c2 4b35 fbc1 1577 1bc1 1f21 2240
00000030: aeb2 36c1 2034 f4c1 ee15 6dc1 c634 4ac1
00000040: 3477 2ac1 44a1 d341 c4fb fec1 44aa 7dc1
00000050: 267c 91c1 0491 92c1 2b3d 0fc1 3207 01c1
00000060: 647d 0fc0 8780 d1c0 1a88 08c1 d20f bbbe
00000070: dc85 18c1 a4fc e841 6caa b8c1 b285 9f40
00000080: 35ff 2bc1 5722 a8c1 2e6c b3bf 67a6 d9c1
00000090: 5e72 7cc0 924c d9c1 4642 1741 98c7 82c1
000000a0: 1853 41c1 4f2f d4c1 fc41 31c1 9576 44c1
000000b0: 6eff 3ec0 bfc6 b0be 18fd 3c41 31ec 1ac2
000000c0: 920b 35c2 18c2 96c1 3611 77c1 9350 3b40
000000d0: 7484 35c1 7258 1741 6e04 4140 5c9b c9c1
000000e0: 1689 72c0 7bc7 26c2 013e 5ec1 110e 1ac2
000000f0: 0d7b 0342 db67 ccc1 0309 be41 082c d9c1
00000100: 0609 c9c1 2581 6ec1 9900 d7c1 d1d3 f2c1
00000110: 5151 21c2 76c0 69c1 5056 65c1 61a8 87c1
00000120: 4d73 97c1 ec78 47bf 50a0 a2c1 64a2 20c1
00000130: aebc 7dc1 b84b a2c1 979e d3c1 574f b1c1
00000140: ec80 12c0 8282 e0c1 742e 7ebf 5c55 65c1
00000150: 0506 3b41 6475 dbc1 cec8 6fc0 a775 3bc1
00000160: 4005 1fc1 815e 80c1 afa3 afc1 0e91 0fc2
00000170: 4eb6 19c1 9615 17c2 ca5f 2ec2 96b8 0dc2
00000180: 0097 e3c1 a5eb b7c1 2dab 3cc0 76c3 07c1
00000190: 1a30 43c1 42e3 58c1 31f1 38c2 bcb8 d240
000001a0: d68a fc40 0c85 d3c0 5ef8 09c2 235f 87c1
000001b0: e047 abc1 75e9 a1c1 cad6 23c1 0a03 34c1
000001c0: dc73 063d 7c89 a940 712b d3c1 38e2 0ac1
000001d0: b3c1 e63e ccdb 30c1 46c7 06c2 385a d2c0
-23.972158 23.419773 -3.2915542 -8.693894 12.844545 -13.350199 -19.332989 -3.466453
-40.615692 -31.401022 -9.716573 2.5332716 -11.418623 -30.525452 -14.817854 -12.637884
-10.654102 26.453743 -31.872932 -15.854069 -18.18562 -18.320808 -8.952434 -8.064257
-2.2420282 -6.5469394 -8.533228 -0.36535507 -9.5326805 29.12336 -23.083214 4.98507
-10.749806 -21.016768 -1.4017389 -27.206251 -3.9444804 -27.162388 9.45368 -16.347458
-12.082787 -26.5231 -11.078609 -12.278951 -2.9843402 -0.3452663 11.81179 -38.730656
-45.2613 -18.844772 -15.441702 2.9267929 -11.344837 9.459093 3.0158954 -25.20086
-3.789617 -41.694805 -13.890138 -38.513737 32.870167 -25.55071 23.7544 -27.1465
-25.129406 -14.906529 -26.875292 -30.353426 -40.32941 -14.609488 -14.333572 -16.957216
-18.9313 -0.7791889 -20.328278 -10.039646 -15.858564 -20.286972 -26.452436 -22.16374
-2.2891188 -28.063725 -0.9928963 -14.33334 11.68897 -27.43232 -3.7466311 -11.716224
-9.938782 -16.046144 -21.954924 -35.891655 -9.607008 -37.77108 -43.593544 -35.43026
-28.44873 -22.99006 -2.9479477 -8.48522 -12.199244 -13.555483 -46.23554 6.5850506
7.8919477 -6.609991 -34.492546 -16.921453 -21.410095 -20.238993 -10.239939 -11.250742
0.032825336 5.2980328 -26.396212 -8.680229 0.45069656 -11.053661 -33.694603 -6.573513

fc2.weight f4 [120, 120]
00000000: ae85 a6c0 53f8 69c0 8163 34c1 166c e33f
00000010: 9e9d 4a41 05fd 8cc1 6f83 3ec0 e679 f4c0
00000020: ea3d c3c0 3828 13c1 2686 b340 a590 c5c1
00000030: 0d29 45c1 6f37 03c1 8e6c a5bf 26e1 d6c0
00000040: e491 94c1 00a4 223f eb82 54c0 7e73 56c1
00000050: c4cf 9640 06ae 4241 0a96 0dc1 ea44 c0c0
00000060: 4a9a a8c0 42e7 f340 dded e7c1 2c56 4dc1
00000070: acce 92c1 7857 1140 d35c 8cc0 4248 c3c1
00000080: d614 85c0 1c4c dfc0 2672 26c1 85c1 c7c0
00000090: 4c3b dac0 438a 0341 7a57 7941 b4c5 f7c0
000000a0: a9a0 2841 92f5 9ac0 8eae c040 3c0d 253e
000000b0: 6549 24c1 9b30 80c1 628e c840 ff1d 0fc1
000000c0: 9038 4ac1 3ace 0141 ac08 5fc0 d08f 71c1
000000d0: 6925 fa3d 53ef ea3e 74d2 63c1 a9ff 40c1
000000e0: 049a 613f 1eab e83f 22df 78c1 9e37 b2be
000000f0: 20cd 32c1 b250 1541 2aad 6240 ab70 9ec0
00000100: 27aa a2c1 4bc0 0040 fade e6c0 7ee5 69c0
00000110: b950 28c0 dfbf 1540 b959 19c1 9001 6bc1
00000120: 17b6 4cc1 407d e7c0 71c7 e33e e7ef 3640
00000130: fccb 70c1 288a 1bc1 e71f 8bbe 3886 24c1
00000140: dc3a 00c1 6325 8dc1 ac96 4ec1 5517 37c1
00000150: 53fb afc1 d0e9 55bf 4dde a4c1 05fe e5c0
00000160: 18b7 7ac1 7b02 13c1 0b10 08c1 c393 dac0
00000170: f8fc f0c0 8c75 bec0 3bd4 b13c 9c74 453f
00000180: 6acc 3dc1 2cf2 44c1 b87e 9d40 fc30 87c1
00000190: c503 98c1 6837 14c1 67f7 3840 f176 0f41
000001a0: a02e 2940 d46f 80c1 7d3f 0fc1 fce8 a3c0
000001b0: 6920 a8c1 463e 88c0 03f8 86c1 f3b3 8ec1
000001c0: c8e4 61c0 f896 90c0 e462 afc0 5735 e7c0
000001d0: 7221 84c1 7485 5ac1 8d88 39c1 4afe 75c1
000001e0: d1d7 88c1 0c3e 2dc1 a4dc 8bbf ab13 e2c0
000001f0: 1d04 1140 41d2 9d40 9d21 82c1 101e 6cc1
00000200: 6c31 efc0 8898 9040 27c9 9cc1 961f 81c0
00000210: 78d3 10c1 1803 46bf 30e5 08c1 bcd6 9cc0
00000220: ca5e 54c1 6b18 1641 59dd bfc1 047d b0bf
00000230: 38cc 3ec1 da0b 9a40 1c11 dc40 9eaf 95c1
00000240: 9654 833e 1972 5441 2bb5 35c1 1283 0740
00000250: 3e22 cdc1 2b88 3440 cd11 8bc1 151e 3ec1
00000260: 92aa f0c0 d071 43bf b5da 7bc0 57e3 39c1
00000270: 6a73 7640 c2b9 e340 7441 9440 0b60 44c1
00000280: 746a c3c0 3672 2dc1 9858 75c1 cbee 3040
00000290: 4413 8540 8865 80c0 8c4f 80c1 9b96 e3c1
000002a0: c071 83c1 34fd 56be a622 6ec1 68f5 3540
000002b0: 774b a0c0 ba09 3241 9adf 33c1 fbee 9fc1
000002c0: 7a4e 5bc0 0bf1 bac1 d6d1 963f cc33 d6c0
000002d0: 2e06 c540 e639 0cc1 bee1 3a41 8607 83c1
000002e0: 88ab e4c0 bae0 9ac0 0438 8ebf dc69 4cc1
000002f0: 9ac8 c1c1 e5bd 91c1 48a7 ccc0 5b2a 21c1
00000300: 3271 f5c0 253d 26c0 dc58 92c0 facc 22c1
00000310: 0e5d 6ac1 fa63 67c1 eed6 8ac0 7845 dfc0
00000320: b218 e5bf ef91 9ec1 488e 35bf 4230 6dc1
00000330: c27d 0341 9eac 79c1 3a8b ae40 1882 92c1
00000340: d6f9 92bd 2637 38c0 d16b 7ec0 9a00 79c1
00000350: 2ede 4bc1 cdc1 0ac1 06f6 99c0 b4a1 ebc0
00000360: ea12 a0c1 6605 803f c697 0240 0cfc b3c0
00000370: c3e1 cac0 8a35 88c1 697e a6c1 723d 0241
00000380: ef21 6fc0 16c4 47c0 dc8e 85c0 6c0a bec0
00000390: 1c8b 20c1 8b10 a7c1 7a5b b340 e6fa 0ac1
000003a0: dd05 9741 2a11 4b41 4480 b7c0 37a2 8ac0
000003b0: 1dd0 84c0 5625 5bbe 1d37 cfc1 faeb a6c0
000003c0: 8f20 8dc1 0c30 ab40 fedf 75c1 76ea d33f
000003d0: 423b 6cc1 d8dc 653f 27c3 0ec1 3d8e 8fc1
000003e0: e804 bb40 0891 443b 8379 63c0 c464 95c0
000003f0: acb3 d6c0 d810 efc0 0401 30c1 8894 d4c0
-5.2038183 -3.6557815 -11.274293 1.776736 12.663481 -17.623545 -2.976772 -7.63988
-6.101308 -9.197319 5.6101255 -24.695627 -12.322522 -8.201034 -1.2923753 -6.714984
-18.571236 0.63531494 -3.3204906 -13.403196 4.712862 12.167486 -8.849131 -6.0084124
-5.268834 7.6219797 -28.991144 -12.833538 -18.350914 2.2709637 -4.386331 -24.410282
-4.1587934 -6.9780407 -10.402868 -6.242373 -6.8197384 8.221255 15.583857 -7.7428837
10.539224 -4.842477 6.021308 0.1611833 -10.267919 -16.023733 6.2673807 -8.944823
-12.638809 8.112848 -3.4849043 -15.09761 0.12214167 0.45885715 -14.23888 -12.062417
0.88125634 1.8177221 -15.554476 -0.34808058 -11.175079 9.332201 3.541819 -4.9512534
-20.333082 2.0117366 -7.214719 -3.654632 -2.629927 2.339836 -9.584405 -14.687881
-12.794456 -7.2340393 0.444881 2.8583925 -15.049801 -9.72123 -0.27172777 -10.282768
-8.01437 -17.643255 -12.911785 -11.443196 -21.997717 -0.83559895 -20.608545 -7.1872582
-15.669701 -9.188106 -8.503917 -6.8305373 -7.53088 -5.951849 0.021707645 0.77131057
-11.862406 -12.309124 4.9217186 -16.898918 -19.00184 -9.263527 2.8901002 8.966538
2.6434708 -16.054604 -8.953 -5.1221905 -21.015825 -4.2576017 -16.8711 -17.837866
-3.5295887 -4.518429 -5.4808216 -7.225261 -16.51633 -13.657581 -11.595838 -15.374582
-17.10538 -10.827648 -1.0926709 -7.064901 2.265876 4.9319158 -16.266413 -14.7573395
-7.474783 4.5186195 -19.598219 -4.0351057 -9.051628 -0.7734847 -8.555954 -4.9012127
-13.273142 9.380961 -23.98308 -1.3788152 -11.924858 4.8139467 6.8770885 -18.71075
0.2565047 13.277856 -11.35673 2.117375 -25.64172 2.820811 -17.383692 -11.882344
-7.5208216 -0.7634554 -3.9352238 -11.618003 3.8507943 7.1164255 4.63299 -12.273448
-6.106745 -10.840384 -15.334129 2.7645748 4.1586018 -4.012394 -16.038841 -28.448538
-16.430542 -0.20995027 -14.883459 2.8431034 -5.009212 11.127375 -11.24209 -19.99169
-3.4266648 -23.367697 1.1782787 -6.693823 6.1570044 -8.764135 11.680113 -16.378674
-7.145939 -4.8399324 -1.1110845 -12.775845 -24.22295 -18.217722 -6.39542 -10.072841
-7.670068 -2.597482 -4.573347 -10.175043 -14.647718 -14.461908 -4.3387365 -6.97723
-1.7898161 -19.821257 -0.7092023 -14.824282 8.218203 -15.604643 5.4544954 -18.313522
-0.07176559 -2.878366 -3.9753306 -15.562647 -12.741743 -8.672315 -4.811282 -7.363489
-20.009235 1.0001647 2.0405135 -5.6245174 -6.340059 -17.026142 -20.811724 8.140001
-3.7364461 -3.1213431 -4.173689 -5.938772 -10.033962 -20.883078 5.6049166 -8.6862545
18.877863 12.69169 -5.7344074 -4.3323016 -4.1504045 -0.21400961 -25.90191 -5.2163057
-17.640898 5.349615 -15.367186 1.6555927 -14.764467 0.89790106 -8.922645 -17.944452
5.844349 0.0029993672 -3.5542915 -4.6685505 -6.7094326 -7.470806 -11.000248 -6.6431313

fc2.bias f4 [120]
00000000: 4bb7 bbc2 fac2 eec1 3136 aec2 35ef 9dc2
00000010: e36f b7c2 b2a2 b8c2 16a8 e8c1 9ed3 c6c2
00000020: 9ca2 c2c1 c019 a5c2 213a bdc2 babf d3c1
00000030: 6c39 19c2 7e48 dec1 9cc0 74c2 1412 9ec2
00000040: e268 3fc2 33d9 41c2 1750 b8c2 706a d7c1
00000050: 077d 0b3f 0e71 b43f f48c 94c2 bcbc 6ec2
00000060: aa67 50c2 3602 83c2 88ba 9dc2 6f54 38c2
00000070: d221 b0c2 5552 d6c2 00d6 13c2 0edd 9bc2
00000080: 7893 c3c2 b82e a5c1 0274 b8c0 a24a d5c1
00000090: e209 e1c2 6285 bec2 fde2 e8c1 c369 0841
000000a0: 917b b8c2 1891 4dc2 ed85 7ec2 52fa 86c2
000000b0: 74af 39c2 f4d8 01c2 aa50 ab40 048f 7cc1
000000c0: 3a0a b6c2 74ec bdc2 5c91 5a3f 777e 99c2
000000d0: 5803 4ac2 83d0 a9c2 90a3 a8c2 9115 8bc2
000000e0: 060a 25c2 7697 bbc2 3edb 23c2 8efc 9dc1
000000f0: 5403 afc2 0869 0040 6dc1 8ac2 b257 57c2
00000100: dbc3 a4c2 bb29 39c2 7387 bbc2 406d bac2
00000110: 7904 b5c2 2a23 d4c1 9b7e fbc1 10f0 a4c2
00000120: 6d3c 33c2 d634 96c2 58c9 42c2 bac4 ccc2
00000130: bbe9 adc2 8920 4ec2 ef75 613f a00a bec2
00000140: 1d16 c8c2 2c00 84c2 51b2 b0c2 7722 c1c1
00000150: 745a 19c2 94eb 7bc2 3aa6 dcc1 bd4d bec2
00000160: 3858 18c2 dd79 8bc2 c7db 49c2 c9b5 f9c1
00000170: eee6 aec2 e3ef 9dc2 f385 a6c2 08ce 68c2
00000180: 3709 86c2 4a88 5ec2 6000 b1c2 5faa aec2
00000190: 20d2 f5bf 5dc4 c8c2 4a4d 54c2 4530 bbc2
000001a0: b0f6 24c2 8b60 b1c1 1d55 45c2 f513 c9c2
000001b0: 02f9 96c2 1a71 56c2 2d81 b9c1 1f29 b6c2
000001c0: 8ec5 bbc2 35b0 b9c2 e038 89c2 ee94 9ec2
000001d0: 531d 7bc2 389b b8c2 5da4 afc2 1431 5fc1
-93.857994 -29.845203 -87.10584 -78.9672 -91.71853 -92.317764 -29.082073 -99.413315
-24.3294 -82.55029 -94.61353 -26.468616 -38.306076 -27.785397 -61.188095 -79.03531
-47.852425 -48.46211 -92.156425 -26.926971 0.5448765 1.4097002 -74.2753 -59.68431
-52.101234 -65.50432 -78.86432 -46.082455 -88.066055 -107.160805 -36.958984 -77.93175
-97.788025 -20.647812 -5.764161 -26.661442 -112.5193 -95.26051 -29.110834 8.525821
-92.24134 -51.391693 -63.630787 -67.48891 -46.42134 -32.46187 5.3535967 -15.784916
-91.01997 -94.96182 0.8537805 -76.747 -50.503265 -84.90725 -84.31946 -69.54212
-41.25979 -93.79582 -40.964104 -19.748318 -87.5065 2.0064106 -69.377785 -53.83564
-82.38253 -46.290752 -93.76455 -93.21338 -90.508736 -26.51717 -31.43682 -82.46887
-44.80901 -75.103195 -48.696625 -102.38423 -86.956505 -51.531773 0.8807058 -95.02075
-100.04319 -66.000336 -88.348274 -24.141829 -38.338333 -62.980057 -27.581165 -95.15183
-38.08615 -69.738014 -50.464626 -31.213762 -87.451035 -78.96853 -83.26162 -58.201202
-67.018 -55.633095 -88.50073 -87.332756 -1.920475 -100.38352 -53.075478 -93.59428
-41.240906 -22.17214 -49.33312 -100.53898 -75.48634 -53.61045 -23.188074 -91.080315
-93.88585 -92.844154 -68.611084 -79.29088 -62.778637 -92.30316 -87.82102 -13.949482

fc3.weight f4 [84, 120]
00000000: 2269 45c1 d7e0 ef40 fc7c acc0 0267 51c1
00000010: f6cb 62c1 a455 93c1 c1cc 4f41 bc97 14c1
00000020: b829 e2c0 5623 2fc1 661c 74c1 90c0 c83f
00000030: df4a 23c1 b02e 0841 3201 d7c0 0861 3ac1
00000040: 17b3 7fc0 2038 44c1 58df 36c1 76be 97bd
00000050: 02d4 92c0 3eb6 0bc1 8d69 0c41 fee5 aebf
00000060: 40ba 9a41 86f1 fb3f 2cb3 f4c0 eb39 b7c1
00000070: 5211 30c1 70b3 c8c1 6c67 9541 8c62 88c1
00000080: 1823 6e3f e169 8bc1 3e80 cebf da4e 56c0
00000090: f7ef b8c1 9a64 23c1 d1f8 2841 fee2 10c1
000000a0: ee2d 1ec1 85c8 03c1 125e 6a40 d082 bbc0
000000b0: 5e75 1840 065b c4bf bed4 48c1 141c f6be
000000c0: d1bb 8dc1 a69f 53c1 abf2 c93e 5006 f6bf
000000d0: 92eb 8840 6cb1 53c1 027f a73f d05a 9740
000000e0: 88b6 6bc0 1838 7ac1 1000 62c1 3ff1 01c1
000000f0: c7f5 00c0 840e 97c0 ec0d b941 aa01 1ec0
00000100: 7263 17c1 2f1d b2be 2844 59c1 e447 2ac1
00000110: 10be 1cc1 0856 e8c0 539a 8041 ab04 85c1
00000120: 7eaf fd3f 2c94 8bc0 75aa 4bc1 c0f2 69c1
00000130: d663 4140 a236 1141 283a 2941 8024 26c1
00000140: 3017 6fc1 71a9 6341 84b9 55c1 966f a8c0
00000150: a658 03c1 bdfb 2cc1 76b9 cac0 28d8 3dc1
00000160: 061a abbf 6945 e83e 40c8 3abf 4c57 1a41
00000170: 2754 67c0 bae0 38c1 f05f ff40 744f e3c0
00000180: a434 ddc0 1991 84c1 d0c6 41c1 9491 3cc1
00000190: ce47 3241 6e2a 52c1 500a fec0 5271 27c1
000001a0: 70d2 cb3b c72c c7c0 5ecc 66c1 7afe 37c1
000001b0: 5471 0e41 861d f5c0 2c62 a13f 108e 1fc1
000001c0: 02e6 3dc1 4445 28c1 5610 993d 4090 8ac0
000001d0: 986b 513f 9037 1cc1 7ec2 56c1 ac20 77c1
000001e0: 4ba5 37c1 cb8f 70c0 91a5 0fc1 faf9 fcc0
000001f0: 2896 37c1 d519 63c1 866c d8bf 5eab 94bf
00000200: 2ab8 84bf 031c bac1 a7ae 63c1 80be 89c0
00000210: c73d 1541 829a 28c1 881b ee3f 759a 4cc0
00000220: eef0 4140 2840 2941 12ae 58c1 9167 75c0
00000230: eb9d 9cc1 4ccf aec0 7e28 cdc0 1e78 c740
00000240: e2be b8c1 54c5 e3c1 3fac 29c0 4c46 be40
00000250: cd24 23c1 b4bc fec0 f2c7 8bc0 5237 05c1
00000260: 1c5f fec0 ff61 9640 da8d 6e3e c8a3 79c0
00000270: d472 0c3e 3ab1 11c1 b8dc edc0 aa24 6741
00000280: 16bf 7bc1 e46f 4bbf df23 acc1 b4b5 91c0
00000290: 8894 9dc0 3477 a7c1 3ab8 6841 4056 d640
000002a0: 5864 74c1 777b 65c1 5022 c140 a812 bbc0
000002b0: 8ab4 b8c0 70ca 55c1 b2ee bdc0 da74 07c1
000002c0: e4e8 56c1 176d 1ac1 db2f 67c0 f6af 7c41
000002d0: cf6e 08c1 6274 8dc0 e645 55c1 c89a 33c1
000002e0: d2fe 2bc1 6a69 8ac0 9a7a d5c0 ba6e 34c1
000002f0: fa48 3bc1 d340 8ec1 7af2 55c1 0adf ecc0
00000300: 77fc d4be 7190 27c1 8cac 02c1 943d 613f
00000310: 1288 7ec1 148c 3ec1 778e a0c1 2dfd 5fc1
00000320: 3dab 1ac1 72e5 47c1 bd8c 03c1 eb8d 00c0
00000330: fd4b 78c0 9a8b e03f 3d06 9541 a65e 1bc1
00000340: 4690 2641 101e 5bc1 bc33 65c1 9b82 8dc0
00000350: c3d3 47c1 93f2 1ac1 5f1d 2a40 673b 45c1
00000360: aec8 e3c0 363b e840 11ce 66c1 a6e3 19c1
00000370: 5379 8c41 8cf4 69c1 2cef 35be ac78 58c1
00000380: a80e d940 4447 6440 947b 6e41 f835 27c1
00000390: 824a e43d 0546 6241 700c cf40 6308 10c1
000003a0: 8be7 5cc1 d8a8 11c0 9703 6240 eb40 24c1
000003b0: 7c50 fac0 8a29 4dc1 3410 6fc1 a862 d640
000003c0: 5ad8 4a41 44ac 70c1 f22d 2341 d4f6 8d41
000003d0: 9a86 5641 270f b141 f623 bdc0 919a ab41
000003e0: 7eb5 0fc1 0734 9541 f00c 6141 3335 ddc1
000003f0: 13bf 13c1 7edc 33c1 6c5e f83f 9c69 3641
-12.338167 7.4961963 -5.390257 -13.087648 -14.174795 -18.416817 12.987489 -9.287045
-7.0675926 -10.946127 -15.256933 1.5683765 -10.205779 8.511398 -6.718896 -11.648689
-3.9953058 -12.263702 -11.429527 -0.074093744 -4.58838 -8.731993 8.775769 -1.3663938
19.340942 1.9683082 -7.6468716 -22.90328 -11.004229 -25.087616 18.675499 -17.048119
0.930223 -17.426699 -1.6132886 -3.3485627 -23.11717 -10.212061 10.560746 -9.055418
-9.886213 -8.236455 3.6619916 -5.8597183 2.3821635 -1.5340278 -12.551939 -0.48068297
-17.716707 -13.226477 0.39442953 -1.9220676 4.278756 -13.230816 1.3085635 4.7298355
-3.6830158 -15.638695 -14.125015 -8.121398 -2.015001 -4.720522 23.131798 -2.4688516
-9.461779 -0.3478789 -13.57914 -10.642551 -9.796402 -7.260502 16.075354 -16.62728
1.9819181 -4.3618374 -12.7291155 -14.621765 3.0217185 9.075838 10.576698 -10.383911
-14.943161 14.228868 -13.357792 -5.2636213 -8.209143 -10.81146 -6.3351393 -11.8652725
-1.3367317 0.45365456 -0.7296181 9.646313 -3.6145113 -11.554865 7.980461 -7.103449
-6.912676 -16.570848 -12.111038 -11.785542 11.14253 -13.135359 -7.938759 -10.465166
0.0062201545 -6.224216 -14.424894 -11.499628 8.902668 -7.659854 1.2608085 -9.972183
-11.868654 -10.516911 0.07473819 -4.3301086 0.818048 -9.763565 -13.422483 -15.445477
-11.477855 -3.7587764 -8.9779215 -7.9055147 -11.474159 -14.193807 -1.6908119 -1.1614797
-1.0368702 -23.263678 -14.23014 -4.3045044 9.327582 -10.537722 1.8602152 -3.1969273
3.0303302 10.578163 -13.542498 -3.8344462 -19.577108 -5.462805 -6.411193 6.2334127
-23.093204 -28.471352 -2.651138 5.946081 -10.196485 -7.960535 -4.3681574 -8.326006
-7.94911 4.6994624 0.232963 -3.9006214 0.13715678 -9.105768 -7.433193 14.446451
-15.734152 -0.79467607 -21.517515 -4.5534306 -4.9243813 -20.933205 14.544977 6.6980286
-15.274498 -14.342643 6.0354385 -5.8460274 -5.7720385 -13.361923 -5.9353876 -8.466028
-13.431858 -9.651633 -3.6122959 15.792959 -8.527053 -4.420457 -13.329565 -11.225288
-10.749712 -4.325368 -6.671216 -11.277033 -11.705317 -17.781652 -13.371698 -7.4022264
-0.41598865 -10.472764 -8.167126 0.87984586 -15.90822 -11.909199 -20.069563 -13.9993105
-9.666806 -12.493517 -8.22186 -2.008662 -3.879638 1.7542603 18.628046 -9.710608
10.410223 -13.6948395 -14.32513 -4.422193 -12.4892 -9.684222 2.6580427 -12.327003
-7.118247 7.257228 -14.425309 -9.618078 17.55924 -14.622204 -0.17767018 -13.529461
6.783039 3.5668497 14.90517 -10.450676 0.11147024 14.142095 6.4702682 -9.002048
-13.806529 -2.2759304 3.531469 -10.265849 -7.8223248 -12.822641 -14.941456 6.699543
12.67782 -15.042057 10.198717 17.745522 13.407862 22.132399 -5.91064 21.450472
-8.98181 18.650404 14.065659 -27.650976 -9.234149 -11.241331 1.9403815 11.400784
